…
- An AOGNet consists of M stages: Each feature map of dimensionality CxHxW is treated as a sentence of N words of dimensions CxN
- There are three types of nodes: Terminal, AND: concatenation, OR: summation
- Future work: Only binary AND node concatenation. Complex interactions by concatenating the entire sub module. Other gates, 

## Experiments:
### Task:
Digit classification

### Network setup: 
<pre>
_________________________________________________________________
Layer (type)                 Output Shape              Param #   
=================================================================
conv2d_1 (Conv2D)            (None, 60, 60, 32)        288       
_________________________________________________________________
max_pooling2d_1 (MaxPooling2 (None, 30, 30, 32)        0         
_________________________________________________________________
convolution2d_8_1 (Convoluti (None, 30, 30, 32)        9216      
_________________________________________________________________
max_pooling2d_2 (MaxPooling2 (None, 15, 15, 32)        0         
_________________________________________________________________
convolution2d_8_2 (Convoluti (None, 15, 15, 32)        9216      
_________________________________________________________________
max_pooling2d_3 (MaxPooling2 (None, 7, 7, 32)          0         
_________________________________________________________________
convolution2d_8_3 (Convoluti (None, 5, 5, 32)          9216      
_________________________________________________________________
max_pooling2d_4 (MaxPooling2 (None, 2, 2, 32)          0         
_________________________________________________________________
flatten_1 (Flatten)          (None, 128)               0         
_________________________________________________________________
dense_1 (Dense)              (None, 256)               33024     
_________________________________________________________________
activation_1 (Activation)    (None, 256)               0         
_________________________________________________________________
dense_2 (Dense)              (None, 10)                2570      
_________________________________________________________________
activation_2 (Activation)    (None, 10)                0         
=================================================================
Total params: 63,530
Trainable params: 63,530
Non-trainable params: 0
_________________________________________________________________
</pre>
#### Baseline:
- 4 CNN layers followed by maxpool
- 2 Dense layers (256 and 10 neurons)
- Dropout: 0.3 rate
- Epochs: 110
- Optimizer: Adam

### Dataset 
Cluttered MNIST: [https://github.com/MasazI/Spatial_Transformer_Network]
…
